model/keypoint_classifier/keypoint_classifier.tflite (tflite, 6852 bytes, 6 tensors)

arith.constant f4 [9, 10]
-0.025917571 -0.2466619 -0.7290468 0.6441741 0.29555887 -0.6635623 0.48900002 0.14148708
0.7648811 -1.0421739 -0.4887074 0.68230665 -0.32007745 0.2399754 -0.67484546 -0.95251477
1.0993907 -0.73853445 -0.4672381 -0.2758428 0.28409135 0.79627424 -0.786868 -0.02926755
-1.2018449 0.28986618 0.22207962 1.0926002 -0.8019475 -0.6256749 -0.23507157 0.09912043
-0.3994827 -0.25032142 1.8234832 -1.1079903 -1.7513487 -1.2250127 0.08557002 -1.0167269
-1.3899895 0.72951746 2.0676074 -3.4285698 -0.62842363 -0.408738 -0.41432557 0.4679404
-0.054692585 -0.12818487 -0.36709177 -0.47004476 -0.0045384495 -0.09870323 -1.3705875 0.85778725
0.029091857 -0.6664336 0.40736 0.8596788 -1.1929173 -0.34387907 -0.4842924 0.31381908
-0.08012688 0.7009538 -1.1890033 0.14104277 0.54043716 0.61216676 -1.1661594 -0.63456976
-0.7898218 0.40845123 0.7355983 -0.1412615 -0.13622469 0.21394333 0.18675475 1.0507814
1.1910824 -1.7766484 0.26796404 -2.3029501 0.47676638 -0.691831 0.4310621 -0.82749814
-1.7203965 0.63257986
00000000: 1651 d4bc f094 7cbe d0a2 3abf 98e8 243f
00000010: 7e53 973e 38df 29bf 365e fa3e fde1 103e
00000020: 3fcf 433f f465 85bf db37 fabe a6ab 2e3f
00000030: 31e1 a3be 1cbc 753e acc2 2cbf 02d8 73bf
00000040: d6b8 8c3f 9810 3dbf d539 efbe 443b 8dbe
00000050: 6c74 913e a1d8 4b3f 2e70 49bf 80c2 efbc
00000060: 0ed6 99bf 5769 943e d768 633e 53da 8b3f
00000070: 6e4c 4dbf 3b2c 20bf 9ab6 70be a7ff ca3d
00000080: ff88 ccbe 212a 80be e667 e93f a0d2 8dbf
00000090: 322c e0bf 37cd 9cbf 563f af3d 1b24 82bf
000000a0: 2deb b1bf a8c1 3a3f ae53 0440 b06d 5bc0
000000b0: 5fe0 20bf 1b46 d1be 7b22 d4be e295 ef3e
000000c0: 5505 60bd e542 03be 74f3 bbbe b5a9 f0be
000000d0: 46b7 94bb eb24 cabd 696f afbf f297 5b3f
000000e0: 0c52 ee3c 649b 2abf 7d91 d03e e913 5c3f
000000f0: 84b1 98bf eb10 b0be 2cf5 f7be e5ac a03e
00000100: 9019 a4bd b571 333f 4331 98bf 846d 103e
00000110: 175a 0a3f f6b6 1c3f b644 95bf 2a73 22bf
00000120: c331 4abf 8520 d13e 2c50 3c3f dba6 10be
00000130: 7c7e 0bbe f613 5b3e a33c 3f3e 0180 863f
00000140: 6375 983f 3769 e3bf 9532 893e 8963 13c0
00000150: b91a f43e d61b 31bf 2cb4 dc3e ebd6 53bf
00000160: f435 dcbf c1f0 213f

arith.constant1 f4 [10, 20]
-0.00030776396 -0.02494369 -0.12270429 0.097532764 0.029096955 0.58238655 0.6332837 -0.42367405
0.24501607 0.12971497 -0.9050696 0.010115566 0.33123726 0.26665425 0.7146797 -0.21738471
0.0072192037 0.41311616 -0.14645673 -1.9238478 0.5621075 0.45478028 0.88304895 1.0215484
0.6306271 -0.24258184 -0.105593085 0.8012095 -0.14445598 1.1164823 1.6072578 0.4188867
0.45358703 -1.6714149 0.13542256 -0.09400949 0.65597045 -0.17151287 0.77119255 -0.24757013
0.4997117 0.11995386 1.0591037 -0.39708218 -1.4020784 -1.3517265 -0.0032374617 0.56288254
-2.4552782 0.116369404 0.57942927 -0.31974295 -1.3679799 0.21325399 -1.595276 0.2237821
0.130832 0.64983577 -2.8179164 0.056102972 0.03124065 -0.01720777 0.17857638 -0.11077634
1.0703146 -0.1127772 0.12716608 0.072771326 -0.15730548 0.36118242 0.29034886 -0.48852563
-0.59330684 1.7053182 0.6725853 1.819227 1.2381396 -0.07080429 1.5857842 -0.08684144
-0.6182069 -1.4266192 -1.3385652 0.048773654 0.94017863 -0.7123042 0.045821156 -0.6692881
0.23310515 0.69716984 -0.37428156 -1.9888493 0.45992187 0.0186784 1.766172 -0.19477697
0.16421829 0.82935387 1.1025419 -0.06127687 -0.7164353 0.21672674 -1.0243577 -0.012998382
-0.4731412 -0.022423754 -0.5033695 0.15041374 0.42429152 -0.7721315 -0.3906295 0.24571131
-0.37876758 0.7167987 -0.070952095 0.22617589 0.6272313 0.11042106 0.69986194 -0.8412783
0.3778474 0.26248974 1.0252129 1.31147 0.23855719 0.44477665 0.9400959 0.79475945
1.1939666 0.45668867 0.6571491 0.38168684 0.5658426 0.24128148 0.66687053 0.31447545
0.4392097 2.0388353 -0.22729652 0.44131348 -0.2440187 0.15023172 -0.13858777 0.37941033
-2.2761354 -0.018818852 0.50219893 -0.26104757 -0.058848772 -0.77714455 -0.0012892379 0.18760073
-0.24493125 -0.15389137 -2.1683025 -1.5060968 0.06395342 -0.045409467 -0.17845756 0.46783504
1.3086935 0.6988899 1.0979458 0.55973583 0.27057064 0.12625478 0.030550567 0.7279544
0.065868825 0.19183289 -0.23733108 0.80747557 0.06977829 1.8824377 0.1331686 1.1537586
0.1972561 0.153055 1.0536553 0.7631097 -1.6940343 -0.39419845 -2.6301444 -0.18328267
0.38943142 0.034608178 0.18787837 0.350934 -1.4115859 -1.9540429 0.54106766 -0.29873082
-0.5051188 0.40535596 0.47553432 0.5133907 0.29353917 -1.1046932 0.057940483 -0.47851175
00000000: 615b a1b9 b656 ccbc 634c fbbd 42bf c73d
00000010: bd5c ee3c 4917 153f e11e 223f ceeb d8be
00000020: 7ee5 7a3e 00d4 043e a4b2 67bf c2bb 253c
00000030: ee97 a93e e886 883e 40f5 363f 199a 5ebe
00000040: 128f ec3b f683 d33e c1f8 15be a540 f6bf
00000050: 47e6 0f3f f6d8 e83e 7f0f 623f 19c2 823f
00000060: c770 213f 6067 78be 3041 d8bd 111c 4d3f
00000070: 45ec 13be e4e8 8e3f a0ba cd3f 5178 d63e
00000080: 8f3c e83e ecf0 d5bf 36ac 0a3e 0c88 c0bd
00000090: aeed 273f 12a1 2fbe e06c 453f 0683 7dbe
000000a0: 36da ff3e 5faa f53d b690 873f 5b4e cbbe
000000b0: 4e77 b3bf 6005 adbf 982b 54bb 1219 103f
000000c0: 4723 1dc0 1553 ee3d 7a55 143f 59b5 a3be
000000d0: f719 afbf 415f 5a3e 0132 ccbf 2327 653e
000000e0: d3f8 053e a35b 263f be58 34c0 3bcc 653d
000000f0: 64ec ff3c 4ff7 8cbc badc 363e b5de e2bd
00000100: 1200 893f bcf7 e6bd d337 023e 2209 953d
00000110: b014 21be e7ec b83e 9ba8 943e 0820 fabe
00000120: f5e2 17bf de47 da3f 8d2e 2c3f 6edc e83f
00000130: 5c7b 9e3f d701 91bd fafa ca3f edd9 b1bd
00000140: cf42 1ebf 759b b6bf 1b56 abbf e2c6 473d
00000150: 8caf 703f 9159 36bf f7ae 3b3d 7756 2bbf
00000160: 1eb3 6e3e b979 323f d5a1 bfbe 9d92 febf
00000170: e17a eb3e 7203 993c ed11 e23f 9d73 47be
00000180: d728 283e 8950 543f 1820 8d3f 75fd 7abd
00000190: 4e68 37bf 9ded 5d3e 271e 83bf 2af7 54bc
000001a0: 903f f2be 05b2 b7bc d3dc 00bf 0f06 1a3e
000001b0: bd3c d93e 69aa 45bf 9700 c8be bf9b 7b3e
000001c0: d3ed c1be 1f80 373f 554f 91bd a79a 673e
000001d0: 3b92 203f 7024 e23d 272a 333f 045e 57bf
000001e0: 3775 c13e 0e65 863e 2d3a 833f 40de a73f
000001f0: 5648 743e c4b9 e33e 20aa 703f 5b75 4b3f
00000200: e6d3 983f 19d3 e93e ec3a 283f 756c c33e
00000210: 10db 103f 7e12 773e 07b8 2a3f ed02 a13e
00000220: 18e0 e03e 477c 0240 6bc0 68be d7f3 e13e
00000230: 0ae0 79be 58d6 193e f4e9 0dbe 1242 c23e
00000240: 34ac 11c0 fe29 9abc 1c90 003f 07a8 85be
00000250: 690b 71bd f2f2 46bf a5fb a8ba 681a 403e
00000260: 42cf 7abe b395 1dbe 78c5 0ac0 c8c7 c0bf
00000270: 03fa 823d 47ff 39bd 94bd 36be 1388 ef3e
00000280: 4583 a73f 73ea 323f 7d89 8c3f d94a 0f3f
00000290: 3c88 8a3e ef48 013e 2f45 fa3c 385b 3a3f
000002a0: 3ce6 863d d76f 443e eb06 73be b8b6 4e3f
000002b0: ece7 8e3d b8f3 f03f 595d 083e 5dae 933f
000002c0: 81fd 493e 73ba 1c3e 2dde 863f 285b 433f
000002d0: 1ed6 d8bf 61d4 c9be 4954 28c0 74ae 3bbe
000002e0: 8e63 c73e 4ec1 0d3d 3063 403e 9fad b33e
000002f0: d9ae b4bf 141e fabf 6983 0a3f 3ff3 98be
00000300: 774f 01bf d18a cf3e 3c79 f33e 936d 033f
00000310: c44a 963e 9666 8dbf 0053 6d3d 7eff f4be

sequential_3_1/dense_10_1/BiasAdd/ReadVariableOp f4 [10]
1.2788613 1.1943382 1.5613611 1.0517849 1.1479267 1.5250549 0.34928706 0.35641494
-0.11215306 1.0597903
00000000: bab1 a33f 13e0 983f aeda c73f e3a0 863f
00000010: 43ef 923f 0035 c33f c1d5 b23e 057c b63e
00000020: 81b0 e5bd 35a7 873f

sequential_3_1/dense_11_1/BiasAdd/ReadVariableOp f4 [9]
-0.79174733 0.06943636 -0.022223495 0.7275993 0.41051278 -0.14023131 0.364152 -0.3115842
0.6957217
00000000: f4af 4abf a634 8e3d 0c0e b6bc f343 3a3f
00000010: bb2e d23e cc98 0fbe 2272 ba3e f787 9fbe
00000020: d11a 323f

sequential_3_1/dense_9_1/BiasAdd/ReadVariableOp f4 [20]
-0.6147075 0.96735406 -0.94422156 -0.9721091 -1.1828341 0.9799661 -0.5710597 -0.5637278
-0.07315937 -1.3284092 -1.0890573 0.83724254 -0.61279577 -0.55411434 -0.45785087 -0.5287765
-0.966471 -1.0634298 -0.29192942 -0.45448777
00000000: 795d 1dbf 84a4 773f 81b8 71bf 24dc 78bf
00000010: 1c67 97bf 0fdf 7a3f f830 12bf 7750 10bf
00000020: 94d4 95bd 5009 aabf 3b66 8bbf 8755 563f
00000030: 2fe0 1cbf 70da 0dbf 6e6b eabe e65d 07bf
00000040: a56a 77bf 781e 88bf c677 95be 9fb2 e8be

sequential_3_1/dense_9_1/MatMul f4 [20, 42]
0.24062032 0.097756475 0.31905165 -0.17268077 0.18158102 -0.3202158 0.20017011 -0.9669411
0.2521608 -0.7646706 -0.325274 -0.07500665 0.07279041 0.015548367 -0.05126724 0.07582491
-0.13254733 0.05627413 -0.22187172 -0.10912682 0.2089952 -0.037327487 0.0847382 0.048346
-0.04994255 0.12948507 -0.09968188 -0.12077796 0.2433254 0.035947867 -0.15112464 0.17784609
-0.41208112 0.38665563 0.08911891 0.10127352 0.26726902 0.3679033 -0.11499516 0.62395245
-0.61968833 0.9804458 -0.2263948 -0.0503664 0.6025116 -0.12181463 0.048360176 -0.20809923
-0.00024319529 -0.34679756 -0.016157228 -0.36280188 -0.28559223 -0.040333547 0.049266938 -0.014939293
0.077255905 0.012084833 -0.008842452 -0.01491884 -0.28595063 -0.015848594 0.11923242 0.06645737
0.15201044 0.12679213 -0.022847166 0.15991008 -0.29490882 0.016939824 0.07933245 0.23808151
0.10187982 0.5422571 -0.089100555 0.45221636 -0.2733911 0.028627517 0.10742929 0.22032212
0.19793966 0.43829134 -0.05501981 0.3960482 -0.16749896 -0.009281009 0.2755293 0.28498676
0.050260413 0.18088475 0.032929603 0.15920976 0.17120627 -1.8779192 0.13990794 0.0010622924
0.0356781 -0.004267541 -0.003548878 0.022113604 -0.033064414 0.057046685 0.19756949 -0.07436813
0.08025419 0.028389301 -0.024191918 0.060722094 -0.116492756 0.041561253 0.1309263 -0.091700904
0.052523144 0.014760729 -0.10257842 0.04017177 -0.19022906 0.0013304761 0.031481095 -0.08060573
0.006539417 0.03198596 -0.05294734 0.03512412 -0.15155187 -0.012492146 0.1901694 -0.24766406
-1.4046643 -0.30085328 -0.95225203 -0.16312811 -0.9156748 -0.11110738 -0.81964535 -0.09043582
-0.21671025 -0.48992053 -0.254219 -0.15012357 0.031398922 -0.045412805 0.22924392 0.058396753
0.06288015 -0.39709544 -0.01420005 -0.023825124 0.2788795 0.09354152 0.33230326 0.09219846
0.37827572 -0.23329702 0.029803108 0.021734845 0.08892077 0.11033978 0.047664355 0.06239682
0.4409565 0.021979148 0.052392486 0.12533465 -0.028413948 0.16979945 -0.08948401 0.15120457
-0.102093175 -0.17187357 0.096326135 -0.23192914 0.17391738 -0.12120315 0.086783975 -0.032466818
0.19414575 0.07332694 -0.41474837 -0.096383 0.0009554286 0.0004381359 0.08805694 0.08486973
0.100353844 0.08590095 -0.19667011 -0.03137845 0.042509627 -0.038844176 0.15059127 0.04169171
0.09283576 0.005827918 -0.008821153 -0.019151157 0.11011472 -0.056899637 0.098200314 -0.1971403
-0.0799369 -0.091461286 0.17074658 0.04243158 0.11559242 -0.17014828 -0.25364447 -1.2600113
-2.1510098 -0.48719034 -0.23587066 0.1691705 -0.838517 0.85856944 -0.13596366 0.3454857
0.09122463 0.22005126 0.26081428 0.1443471 0.28409624 0.25425562 -0.12812695 -0.059516955
-0.08017711 -0.2063467 0.071032524 -0.17277168 0.42857775 0.1545711 -0.18486188 0.11010737
-0.2034743 0.27314675 -0.1072568 0.32653564 0.4303883 0.003060811 -0.1939614 0.09979432
-0.2199439 0.38765728 -0.08262693 0.3119253 0.29799223 -0.3179682 -0.13524164 -0.20610479
-0.1821077 0.109652564 -0.1553959 0.15434305 -0.24040109 0.11848265 -1.2495421 1.1206172
00000000: 2c65 763e 8c34 c83d bd5a a33e 3ad3 30be
00000010: 60f0 393e 53f3 a3be 65f9 4c3e 7489 77bf
00000020: 381b 813e 74c1 43bf 508a a6be 169d 99bd
00000030: 2313 953d 94be 7e3c 99fd 51bd 174a 9b3d
00000040: 7dba 07be b47f 663d 5732 63be e27d dfbd
00000050: d602 563e b5e4 18bd 398b ad3d 7506 463d
00000060: 8f90 4cbd bc97 043e 0326 ccbd 6f5a f7bd
00000070: 4b2a 793e 123e 133d 6bc0 1abe 491d 363e
00000080: 4cfc d2be baf7 c53e fa83 b63d 7e68 cf3d
00000090: 7cd7 883e d25d bc3e 9582 ebbd 59bb 1f3f
000000a0: e5a3 1ebf 7ffe 7a3f 0ad4 67be 004d 4ebd
000000b0: 333e 1a3f f379 f9bd 5215 463d f717 55be
000000c0: 3d02 7fb9 738f b1be 2a5c 84bc 2bc1 b9be
000000d0: 2539 92be ca34 25bd 21cc 493d f0c3 74bc
000000e0: 5838 9e3d 77ff 453c efdf 10bc 266e 74bc
000000f0: 1f68 92be e9d4 81bc 2130 f43d cd1a 883d
00000100: a0a8 1b3e ccd5 013e fb29 bbbc 78bf 233e
00000110: 4afe 96be 63c5 8a3c 0d79 a23d a4cb 733e
00000120: 5ea6 d03d 5cd1 0a3f 5a7a b6bd e788 e73e
00000130: ebf9 8bbe 4184 ea3c e303 dc3d 1f9c 613e
00000140: b2b0 4a3e b967 e03e 745c 61bd d4c6 ca3e
00000150: d984 2bbe 600f 18bc 2d12 8d3e c9e9 913e
00000160: dddd 4d3d da39 393e 31e1 063d e207 233e
00000170: b250 2f3e a85f f0bf 0744 0f3e 9e3c 8b3a
00000180: 3323 123d bbd6 8bbb 4b94 68bb 9727 b53c
00000190: 8d6e 07bd c9a9 693d a84f 4a3e 514e 98bd
000001a0: 4f5c a43d ae90 e83c 212e c6bc bbb7 783d
000001b0: c193 eebd 223c 2a3d 8b11 063e afcd bbbd
000001c0: 8222 573d fcd6 713c a214 d2bd 278b 243d
000001d0: 68cb 42be 5f63 ae3a 52f2 003d 9e14 a5bd
000001e0: 9b48 d63b b603 033d 4fdf 58bd 4fde 0f3d
000001f0: 6a30 1bbe dcab 4cbc c4bb 423e a69b 7dbe
00000200: 0acc b3bf 7109 9abe cac6 73bf 0e0b 27be
00000210: aa69 6abf 448c e3bd 47d4 51bf 6a36 b9bd
00000220: 4be9 5dbe ddd6 fabe fe28 82be feb9 19be
00000230: 289c 003d c702 3abd ebbe 6a3e 6f31 6f3d
00000240: 4fc7 803d 1850 cbbe 54a7 68bc e82c c3bc
00000250: 4bc9 8e3e b292 bf3d a723 aa3e 8cd2 bc3d
00000260: 5bad c13e 6ae5 6ebe a625 f43c 460d b23c
00000270: 181c b63d d3f9 e13d b33b 433d cf93 7f3d
00000280: 0dc5 e13e 9d0d b43c 8199 563d ba57 003e
00000290: 5ec4 e8bc e8df 2d3e 6543 b7bd 5fd5 1a3e
000002a0: 3a16 d1bd a0ff 2fbe a346 c53d d57e 6dbe
000002b0: 6617 323e 5b39 f8bd ccbb b13d edfb 04bd
000002c0: 25ce 463e 6f2c 963d e659 d4be 7364 c5bd
000002d0: ba75 7a3a 9bb5 e539 3257 b43d 2ed0 ad3d
000002e0: 5186 cd3d d6ec af3d e463 49be b186 00bd
000002f0: 931e 2e3d 121b 1fbd 9934 1a3e edc4 2a3d
00000300: ad20 be3d 1ff8 be3b 9986 10bc e3e2 9cbc
00000310: d483 e13d 980f 69bd 3f1d c93d 26df 49be
00000320: f5b5 a3bd 0e50 bbbd 31d8 2e3e bdcc 2d3d
00000330: b8bb ec3d 5a3b 2ebe b0dd 81be 0d48 a1bf
00000340: 25aa 09c0 0371 f9be 1488 71be 083b 2d3e
00000350: 0da9 56bf 35cb 5b3f 0f3a 0bbe 80e3 b03e
00000360: fbd3 ba3d 1e55 613e 7389 853e bacf 133e
00000370: 1075 913e cb2d 823e b633 03be 0dc8 73bd
00000380: e633 a4bd 8d4c 53be 8079 913d 0feb 30be
00000390: 8b6e db3e e347 1e3e 6f4c 3dbe f97f e13d
000003a0: 915b 50be e4d9 8b3e 74a9 dbbd ae2f a73e
000003b0: db5b dc3e e397 483b d19d 46be f760 cc3d
000003c0: f938 61be 047b c63e 4f38 a9bd acb4 9f3e
000003d0: 7092 983e bacc a2be c97c 0abe 220d 53be
000003e0: 717a 3abe 8691 e03d 1a20 1fbe 1b0c 1e3e
000003f0: b42b 76be 08a7 f23d fff0 9fbf 6270 8f3f
