model/keypoint_classifier/keypoint_classifier.tflite (tflite, 6732 bytes, 6 tensors)

arith.constant f4 [8, 10]
000000 68 82 9e 3e 09 31 67 3f 18 8d 0f 3f 2c 88 af bd
       0.30958867 0.90309197 0.56074667 -0.085708946
000010 89 06 88 3e 49 84 d6 be d5 89 a3 bf 40 ac ba be
       0.26567486 -0.418978 -1.2776438 -0.3645954
000020 68 e9 a3 be 5a 20 25 3f 68 1f 96 3f f3 04 77 bf
       -0.32014012 0.6450249 1.1728334 -0.96491927
000030 29 51 97 3d b2 34 bc be c4 7b 88 3e 3f a8 13 bf
       0.07388527 -0.36758953 0.26656926 -0.576786
000040 2d f2 a9 3e 98 f7 09 3f 19 aa af bd cd 9c d8 be
       0.33192578 0.53893423 -0.085773654 -0.4230713
000050 11 70 d4 be 35 e9 13 3e 36 6c dc 3e d4 bf d0 bf
       -0.4149175 0.1444443 0.43051308 -1.6308541
000060 0d 7f 85 3f 42 f1 3b 3f 08 22 0b 3f c8 b9 40 bf
       1.0429398 0.73415005 0.543488 -0.7528348
000070 bb 84 ba bf 9e 34 97 bf 03 16 01 bf c7 0e 9a 3e
       -1.4571756 -1.1812932 -0.5042421 0.300894
000080 c6 62 75 3f 9f 96 d2 bd aa e4 93 bf ae 70 19 c0
       0.9585384 -0.10282635 -1.1554158 -2.3975024
000090 2c ee 05 be a2 73 c7 3e 1e bf 8e 3f 88 8f 46 bf
       -0.13079137 0.38955408 1.1152074 -0.7756276
0000a0 44 c9 2e 3e 72 c7 90 bf be 3c 2d 3f 78 19 80 3f
       0.17068964 -1.1310866 0.6767081 1.0007772
0000b0 70 93 07 3f 1a 31 be be e9 dc bd 3e 28 ee 92 3d
       0.52959347 -0.37146837 0.37082604 0.07174331
0000c0 e4 27 66 bf 69 34 a5 bf 75 47 de 3e e2 66 17 bb
       -0.8990462 -1.2906619 0.43413892 -0.0023102094
0000d0 35 f6 a5 bf 8a 12 ba bf 3d 28 62 bf 00 c1 1a 3f
       -1.2965761 -1.4536908 -0.8834265 0.60450745
0000e0 b4 bc 56 3f d8 2d 0e c0 4e 3b 95 bf 54 e9 87 3f
       0.8388169 -2.221548 -1.1658723 1.0618081
0000f0 ad d1 82 bf 16 8d 67 3e 91 ed 55 be 72 41 cd 3e
       -1.0220238 0.22612414 -0.20891406 0.40088993
000100 f7 63 e2 bf 42 a8 88 3f 31 0e 83 bc 49 5a 01 bf
       -1.7686757 1.0676348 -0.015997978 -0.5052839
000110 12 be b7 3b 31 ca 35 3f 88 3a 0a c0 82 eb 59 3f
       0.005607375 0.71011645 -2.1598225 0.8512498
000120 82 b3 39 bf ab 86 68 3d 8f 92 b8 be 74 93 b2 be
       -0.7253953 0.056769054 -0.36049315 -0.34878123
000130 3a 5a 91 bf b8 a2 fa 3e 85 f4 56 3e 74 6e c3 3e
       -1.135566 0.4895227 0.20991714 0.38170207

arith.constant1 f4 [10, 20]
000000 fc 0d 1c 3f 55 c7 e9 3d cb e1 9e 3e 6d c6 03 3f
       0.6095884 0.11414973 0.3103164 0.5147465
000010 46 37 53 3e 25 de 75 3e f1 75 a6 3d 4b f0 82 3f
       0.20626554 0.24010523 0.08127964 1.0229582
000020 62 2b 78 be 04 2c 79 3e ca 7a 88 3f c9 8f d3 bc
       -0.24235299 0.24333197 1.0662472 -0.025825398
000030 dd 0f 6c 3f 56 7a 19 3e 6c 3f 87 3f 2b 68 5f 3d
       0.92211705 0.14988074 1.056623 0.0545427
000040 3b 4a 43 bf 96 f5 fb 3f 67 4a b3 be a9 bd 14 3f
       -0.7628514 1.9684322 -0.35017702 0.581019
000050 11 61 af bf 5a f7 64 3f 5c a1 47 3e e2 0d a8 be
       -1.3701497 0.8943993 0.19495147 -0.32823092
000060 3b 0a 8f bd f9 38 d5 3e 1b 72 06 3f 3d be 42 3e
       -0.06984373 0.4164503 0.5251786 0.19017883
000070 a8 cc 2c 3e 63 a6 a2 3f 4c 4f 7e 3e 4a d6 73 be
       0.16874945 1.2707027 0.24834937 -0.23812214
000080 57 1a 15 3f a5 f3 ee 3d ef 92 8e 3d ae 45 3f 3f
       0.58243316 0.11667565 0.06961619 0.747157
000090 bd 1d a8 bd 9b 52 b6 be 59 62 74 3f c8 ca 04 3e
       -0.08208797 -0.35609898 0.95462567 0.1296798
0000a0 3b 55 94 3e 05 cc 8d 3e 28 81 97 3e bd 07 90 3f
       0.28971276 0.27694717 0.29590726 1.1252362
0000b0 a7 aa 79 3f be 91 23 bf 6b a1 98 3e d5 3d 87 3e
       0.9752602 -0.6389426 0.29810652 0.26414362
0000c0 fd 95 34 3e b0 6b a6 3e e2 b6 3f 3d 9c 29 0c 3f
       0.17635341 0.32504034 0.04680527 0.5475099
0000d0 45 80 81 be 5f d5 68 3d d2 bf 98 bf 7f b1 9a 3e
       -0.25293174 0.05684411 -1.1933539 0.30213544
0000e0 76 78 79 bd 6a f0 7a 3e 90 27 79 bd 44 16 06 3f
       -0.060905896 0.24505773 -0.060828745 0.52377725
0000f0 99 ab 80 3e e3 10 5a 3f 68 5d 5b 3e 21 9d 08 bc
       0.2513092 0.8518202 0.2142235 -0.008338244
000100 d7 9e 19 be b1 e9 94 bf 96 b0 92 3f 9e c5 0a 3b
       -0.15001999 -1.1633817 1.146014 0.0021174918
000110 5f 49 90 3d c9 01 9d be 45 29 50 3c d3 73 e9 bc
       0.070452444 -0.30665424 0.012705152 -0.028497612
000120 17 3b 59 3c c3 24 49 bf 89 f7 3b be 4a 7c c4 3f
       0.013258717 -0.7857172 -0.18356146 1.535043
000130 d6 26 68 3e 7b 9c 4f 3f 30 81 88 3c 66 1a b9 be
       0.22671065 0.81098145 0.016663164 -0.36152953
000140 cc 79 38 3f 2c 74 54 bd 74 a2 cc 3e 6d b5 4c 3f
       0.7206085 -0.051868603 0.39967692 0.79964334
000150 15 2a 71 3f af e6 63 3f 20 c5 cb 3e b1 0e c2 3f
       0.9420484 0.8902387 0.39798832 1.5160733
000160 54 26 17 be 2c 1c 0d 3e eb 19 c4 be 24 d4 3a 3f
       -0.14760715 0.13780278 -0.38301024 0.7297995
000170 1a d8 34 3f 3f da d3 bd f1 41 4b 3f a3 43 45 3d
       0.70642245 -0.103443615 0.79397494 0.048160207
000180 56 f8 2b 3f e9 93 a2 3f 43 c7 48 bf 6f fb 20 3f
       0.67175806 1.2701389 -0.7842905 0.6288366
000190 84 d7 92 bf ec 0a e9 3d 66 d3 8d bd 25 a3 25 bf
       -1.147202 0.11379036 -0.06925087 -0.64702064
0001a0 3c ce eb be 01 3f 8e 3d 5a b2 82 be 7c 61 f4 3d
       -0.46055782 0.06945611 -0.25526696 0.11932656
0001b0 4a 15 30 be 11 56 be bd fb f8 a2 bf 25 0a 39 bf
       -0.17195621 -0.092937596 -1.2732233 -0.72281104
0001c0 7d 5e ad 3e 6b fa ec bd 8a 51 c2 3e 9b 81 e2 bc
       0.3386115 -0.11571201 0.37952834 -0.027649691
0001d0 f9 4e 7a 3f 1d 87 33 bf 19 9c 1e bf 5d f3 11 bd
       0.9777675 -0.7012804 -0.61956936 -0.03563248
0001e0 f5 89 05 40 54 cf 66 3d 55 bd a7 3d 85 32 4a 3f
       2.0865452 0.056350067 0.08190409 0.78983337
0001f0 e8 8f 1d be bc 71 07 bd 94 e6 e3 be 49 5e 5b 3e
       -0.15386927 -0.03306745 -0.44511855 0.21422686
000200 20 d5 69 be 29 61 be bf 8a 86 a1 3e db 40 a5 be
       -0.22835207 -1.4873401 0.31547958 -0.32276043
000210 66 9b 1f be 64 d6 c5 3d c3 2b 46 bf df 6f 92 3c
       -0.15586624 0.096600324 -0.77410525 0.01787561
000220 df 3a ef bd b0 12 04 bf 62 ba 92 3e 75 e3 e7 3d
       -0.11681151 -0.51591015 0.28657824 0.11322681
000230 e2 b9 85 3d af a0 88 3e 75 a7 db 3d 1b 66 a1 bc
       0.06529595 0.26685092 0.10725299 -0.019702008
000240 b4 9c 36 3e d0 70 52 3f 1a ba 7f 3f 87 44 1a 3f
       0.17833215 0.8220339 0.99893343 0.60260814
000250 ac 09 66 be 81 0d 95 3f e3 70 e6 be 1f fc e7 bc
       -0.22464627 1.1644746 -0.45008 -0.028318463
000260 68 4d d1 3e b4 aa 6c 3e 04 cd 2c bf c7 1c 81 3e
       0.4087937 0.23111993 -0.6750033 0.25217268
000270 66 82 d7 bd 3a 91 11 3f 76 fe b2 bd ba d9 f6 be
       -0.105229184 0.56862223 -0.08739941 -0.48212987
000280 f4 37 b5 3d a3 27 85 3f 72 99 df 3e 66 02 3f bd
       0.08848563 1.0402721 0.43671757 -0.046633147
000290 8d 08 d2 3e 6e b6 e5 3e e7 8e 0d 3f 05 21 df be
       0.4102215 0.44865745 0.55296177 -0.4357988
0002a0 54 95 89 3e ac 86 7c 3f 18 1d e3 3e cb 8f c8 3e
       0.2687174 0.9864299 0.44358134 0.39172205
0002b0 56 9e 91 be 64 fe 8b 3f 74 f1 c7 3e 72 bf 4a 3f
       -0.28441113 1.0937009 0.39051402 0.7919837
0002c0 24 25 13 bf 96 03 35 be f9 7b 9d 3d bd 68 ab be
       -0.5747855 -0.17677149 0.076896615 -0.33478346
0002d0 8e 27 b4 be c8 5c 3f 3f f8 56 8b 3f 8f a5 58 be
       -0.35186428 0.7475095 1.0885916 -0.21156906
0002e0 49 cb 19 be d7 06 0d 3f 37 c1 b7 3d 76 a8 55 3f
       -0.15018953 0.5508856 0.089724 0.83460176
0002f0 b1 9d c6 3f 86 cb 7a 3d 97 11 60 be d7 6e b9 bd
       1.5516874 0.06122925 -0.2188171 -0.09054344
000300 0d 80 c0 3d b7 d9 95 3f 4a 31 ae be af 0f e5 3e
       0.09399424 1.1707066 -0.3402198 0.44738528
000310 42 bf 45 3f 6c cd 3e bf f4 34 ed 3f 31 fe ce 3e
       0.7724496 -0.745322 1.8531785 0.40428308

arith.constant2 f4 [8]
000000 d1 6a 5d bf 5b ab a7 3d 90 f6 34 3f 6e 2c 1c bd
       -0.86491114 0.0818698 0.70688725 -0.03812831
000010 71 d7 ef be f0 ad 75 3f a2 12 d3 be 49 bf bd 3e
       -0.46844056 0.9596853 -0.41225153 0.37060001

sequential_1/dense_1_2/BiasAdd/ReadVariableOp f4 [10]
000000 be 57 2e 3e 14 45 df 3e b6 8d 55 3d 95 a6 0e 3f
       0.17025658 0.4360739 0.0521371 0.55722934
000010 5d 92 57 3f de b7 a3 3f 1c aa 9b 3f 21 da 57 3e
       0.8420771 1.2790487 1.2161288 0.21079303
000020 c3 13 c4 3e d4 2b 0f 3f
       0.38296327 0.5592625

sequential_1/dense_1/BiasAdd/ReadVariableOp f4 [20]
000000 ac c3 a3 bf e4 85 04 bf e1 78 d5 be 9a 89 3c bf
       -1.2794089 -0.517668 -0.41693786 -0.73647463
000010 37 1f 05 bf ed 4f d1 be f8 a6 48 bf 77 06 5b bf
       -0.52000755 -0.4088129 -0.78379774 -0.8555674
000020 3c 89 d0 be a2 b7 1b bf ce 9d 83 bf 0c 69 03 bf
       -0.40729702 -0.60827076 -1.0282533 -0.51332164
000030 a1 0e c3 3d dd 5d 0c bf 03 3e 17 bf 92 45 0c bf
       0.095242746 -0.54830724 -0.59079 -0.54793656
000040 c7 9f 91 be 29 4d 98 bf 05 d3 04 bf ad 94 52 3f
       -0.28442213 -1.1898547 -0.5188449 0.8225811

sequential_1/dense_1/MatMul f4 [20, 42]
000000 52 04 90 be 3c 08 2b 3e 64 0d 9b 3d 54 ac de bd
       -0.28128296 0.1670236 0.075709134 -0.10872713
000010 3e 32 8e bc 4a 84 58 be 90 83 cd bb d6 1b 31 bf
       -0.017357942 -0.21144214 -0.006271787 -0.691831
000020 4c 88 61 3d ea 1a a1 3b 60 69 02 bf de bc 83 be
       0.055061623 0.0049165385 -0.5094204 -0.25730032
000030 cc e3 19 be 9b b4 9e bd 7d 6e 3a 3d 3d 12 3a 3d
       -0.15028304 -0.077492915 0.045515526 0.04542755
000040 15 cc 90 3d 5e d4 53 3d 82 93 10 be a4 9a 8b be
       0.070701756 0.0517162 -0.1411877 -0.2726642
000050 e2 99 eb 3c c1 65 6c bd 1e c4 56 3d 64 ce 8d 3d
       0.0287599 -0.057714228 0.052433126 0.069241315
000060 62 87 b7 3c c7 70 64 3d 12 0d d0 3d 8d 18 1e bf
       0.022403423 0.055771615 0.10158743 -0.6175621
000070 64 11 42 3d 7e 4a 48 bd a3 fa 0e 3d eb c2 0d 3e
       0.047379866 -0.048899166 0.034906995 0.13843887
000080 05 6a 65 ba 9d 47 ae 3d 81 3e 1b 3e 7d 82 3c bf
       -0.0008751455 0.08509753 0.15160562 -0.7363661
000090 29 e5 d2 3c 30 1b e1 bd 2e 8c 02 3b b0 64 fe 3d
       0.025744038 -0.10991514 0.001991998 0.12421548
0000a0 da 3d a4 bc 96 ac ce 3d 50 59 c2 3c 20 ba c5 bc
       -0.020049024 0.10091512 0.023724228 -0.024136603
0000b0 be 82 10 3e c0 69 1a 3e 7b a2 02 3e c8 db 51 3d
       0.14112374 0.15079403 0.12757294 0.05123499
0000c0 c7 27 4f 3d 03 bd 8d 3d a2 19 c3 3d f6 91 46 3d
       0.050575044 0.06920817 0.095263734 0.048479043
0000d0 c9 7e 40 39 7c ae 0d 3d 20 dd 1a 3c a4 08 d3 3b
       0.00018357778 0.03459023 0.009452134 0.006440239
0000e0 7c ad 59 bd 84 4d 51 39 9e af 63 bd 4e f4 12 bd
       -0.053143963 0.0001996067 -0.055587403 -0.03587752
0000f0 7c 38 a6 bc 2d 5e ac 3d 6c 4f aa 3c 90 3c 47 3d
       -0.020290606 0.084164 0.020789824 0.04864174
000100 fa a9 9d 3c 44 12 26 3d 14 f5 16 3d 28 58 b1 3d
       0.01924609 0.040544763 0.03685482 0.086593926
000110 a7 a1 81 3d 93 7f 0a 3e ff 9d e9 bc 45 32 fa 3d
       0.06329661 0.13525228 -0.028517721 0.122166194
000120 07 9c 43 be f1 e9 90 3d 98 5a cd be 51 5d 09 c0
       -0.19102488 0.07075871 -0.4010818 -2.1463206
000130 ae 47 1b 3e 53 f7 3e 3e 50 b3 e6 3c 1c ba 2a 3e
       0.15164062 0.18649034 0.028161675 0.16672558
000140 92 cc 07 bd f4 de 43 3e e1 3b ad bd e5 83 c7 3e
       -0.033154078 0.19128019 -0.084586866 0.38967815
000150 2c c9 1d be 5e bd 39 3e 84 ec 93 bd 79 75 85 bd
       -0.15408772 0.18138644 -0.07222846 -0.06516547
000160 78 06 18 be 5a be c6 be 52 ae d3 be 26 e5 fb be
       -0.14846218 -0.38817102 -0.41343933 -0.49198264
000170 a0 5c 31 bf e6 ae c4 be 20 80 ba ba 25 a2 98 3e
       -0.6928196 -0.38414687 -0.0014228858 0.29811206
000180 09 d4 c8 3d 9f ef f0 3d ec c2 d6 3c 04 fd 44 3c
       0.098060675 0.11764454 0.026215993 0.012023214
000190 27 c8 0f bd f9 b9 bd bc a5 9d d9 bd 08 31 9a 3e
       -0.03510299 -0.023159968 -0.106257714 0.30115533
0001a0 dc a4 d4 3d 8b f3 21 be 1a 2a 8a 3e 6d 42 60 be
       0.10383007 -0.1581556 0.26985246 -0.2190034
0001b0 09 86 7a 3e 37 dd 22 3f e0 54 68 be d8 c1 96 3e
       0.24465193 0.636188 -0.22688627 0.29444766
0001c0 5b 0c a2 3d 75 3f 86 be 16 31 f5 3e b5 99 e8 bd
       0.07912513 -0.2622029 0.47889012 -0.11357442
0001d0 f9 b5 41 3f 4f 0e 6a 3f d1 16 a8 be 13 ff 5d 3e
       0.75668293 0.91428083 -0.32829908 0.21679334
0001e0 23 8a d9 bc 61 cf 40 be 2e f9 8b 3e fe 31 0b 3d
       -0.026555127 -0.18829109 0.27338547 0.033983223
0001f0 53 b1 00 3f e0 cf 29 3f e8 0e 3f 3e 5a 4f 8e 3e
       0.50270575 0.6633282 0.1865803 0.27794915
000200 18 04 72 3d fd bb 52 3f 23 fc 58 bd e7 7c 8a 3e
       0.059085935 0.823181 -0.05297483 0.27048418
000210 6a 97 8f 3e b6 a0 81 3e c6 db 05 3f 01 df b8 3c
       0.28045207 0.25317925 0.5228847 0.022567274
000220 6f 26 98 be 8c c5 08 bf c7 1f 2e be fd 68 20 3c
       -0.29716823 -0.5342643 -0.1700431 0.009790656
000230 3f 16 cf bd 07 07 9e 3d 17 a6 84 bd 27 41 76 3d
       -0.10111665 0.07716184 -0.064769916 0.060120728
000240 61 ea 00 be 4c 4c 1b bf 79 f5 33 bd d1 a4 7b 3d
       -0.12589408 -0.60663295 -0.043935273 0.061436478
000250 b2 62 0a be 4f 26 05 3e fd 86 fe bd f8 33 90 3d
       -0.13514212 0.13002895 -0.12428091 0.07041162
000260 ac 41 d9 3e dd 2e ce be 01 8b 03 3e cc ae 35 3d
       0.42432916 -0.4027013 0.12845995 0.044356152
000270 08 c0 6d bd 03 de 22 3e d7 fd 1c be f2 7a 1d bc
       -0.058044463 0.15905003 -0.15331207 -0.009611832
000280 2c 55 43 3f ab d9 67 bf 01 e3 aa 3e d3 e7 3f 3d
       0.76301837 -0.9056651 0.33376315 0.046851944
000290 f4 df b0 3d e9 f3 b8 3d 3d 93 02 be 88 fd 80 bd
       0.08636466 0.09030897 -0.1275148 -0.06298357
0002a0 f5 62 83 be dc e3 33 3e 88 6e f2 be 57 ad 9b 3c
       -0.25661436 0.1756739 -0.47349954 0.019003553
0002b0 39 7f 0a bf ca 5b b2 bd c1 74 1f bf d4 20 fb bc
       -0.54100376 -0.087089136 -0.6228753 -0.030655302
0002c0 bd 2d 92 bf 2a ab 83 3c d2 1b a7 bb 53 0f 8f be
       -1.1420208 0.016072828 -0.005099752 -0.2794138
0002d0 2e c2 4b bd ee 2b 27 bd 12 b2 60 bd 0e 08 62 3b
       -0.04974573 -0.04081338 -0.05485732 0.0034489664
0002e0 86 04 15 bd 70 f5 a5 3c 96 c2 7d 3e 4a 06 67 be
       -0.036381267 0.020258635 0.2478126 -0.22560993
0002f0 44 8b 09 3e 10 88 54 3c c9 fe 92 3c 40 93 cf 3d
       0.13432032 0.012971893 0.017943757 0.101355076
000300 33 cd 02 bd 7e 67 7a 3d 1e f4 f9 3e 52 d5 f2 bd
       -0.031933974 0.061133854 0.4881906 -0.11857094
000310 73 1f 9a 3e 38 e7 2f 3d 98 fa 14 3e 7b b7 85 3d
       0.3010212 0.042945117 0.14548719 0.06529137
000320 13 03 58 bc 39 5c 92 3c 76 05 3f 3f cd 94 b5 3c
       -0.013184327 0.01786624 0.7461771 0.02216568
000330 3e 01 da 3e d3 ec c2 3d 56 07 a5 3e ba 87 b9 3d
       0.42579073 0.09517827 0.3223216 0.09059091
000340 f0 fb 11 3e dc cb 35 3e 7c 03 15 be b9 aa 09 be
       0.14256263 0.17753547 -0.1455211 -0.13444032
000350 0c f9 12 3f 15 93 98 be 4b ca 1d 3f 78 62 50 bd
       0.57411265 -0.29799715 0.616368 -0.050875157
000360 39 6f 70 3f 6a 6f 2a be 21 2a 3f 3f 7a 9f bb bd
       0.9391971 -0.16644064 0.7467366 -0.09161277
000370 c8 45 6c bd 52 39 e2 3d 92 43 1d be 4f 45 b1 3d
       -0.057683736 0.11046089 -0.15357807 0.08655798
000380 af 62 c2 bd 75 18 a4 3d 96 e9 c3 bd e0 cd 82 3c
       -0.09491479 0.08012477 -0.09566037 0.01596731
000390 5c d9 dc 3c 40 02 8d 3d 3a c8 33 bd 24 ab 9f 3d
       0.026959114 0.06885195 -0.043892123 0.07796314
0003a0 a7 4a fc 3d 4c 6a 09 3e 33 7f 98 3e 57 20 20 3d
       0.12318926 0.13419455 0.29784545 0.03909334
0003b0 e2 aa 5f 3d 43 56 c9 3d 35 f0 c8 bd 2a 0e 6f 3d
       0.054606326 0.09830906 -0.09811441 0.058363117
0003c0 8f 2b e6 bd 9f 68 28 3d c5 8b 32 bd 99 1e 06 3d
       -0.11238777 0.0411154 -0.043590326 0.032744024
0003d0 3d 4f 9e 3c 5c 84 a4 3d ce 80 d7 be dc 4a e6 bd
       0.019324893 0.08033058 -0.42090458 -0.11244747
0003e0 a2 f9 95 bf 45 5f 33 bf ca 8f ce bf ed fa c7 bd
       -1.1716807 -0.70067245 -1.6137631 -0.09764657
0003f0 74 21 9d 3d 68 e9 73 3d 3a 15 59 3e 60 22 19 be
       0.07672396 0.059548765 0.21199504 -0.1495452
